_________________________________________________________________
Layer (type)                 Output Shape              Param #   
=================================================================
input (InputLayer)           (None, 50, 50, 3)         0         
_________________________________________________________________
vgg16 (Model)                multiple                  14714688  
_________________________________________________________________
flatten (Flatten)            (None, 512)               0         
_________________________________________________________________
fullyconnected_1 (Dense)     (None, 1024)              525312    
_________________________________________________________________
fullyconnected_2 (Dense)     (None, 1024)              1049600   
_________________________________________________________________
classifier (Dense)           (None, 5)                 5125      
=================================================================
Total params: 16,294,725
Trainable params: 1,580,037
Non-trainable params: 14,714,688
_________________________________________________________________
Epoch: 0
Train Loss: 0.0585
Train Accuracy: 0.8298
Test Loss: 0.1496
Test Accuracy: 0.5226
Time: 27s

Epoch: 1
Train Loss: 0.0573
Train Accuracy: 0.8340
Test Loss: 0.1511
Test Accuracy: 0.5025
…
